…
- This IS expected if you are initializing AlbertModel from the checkpoint of a model trained on another task or with another architecture (e.g. initializing a BertForSequenceClassification model from a BertForPreTraining model).
- This IS NOT expected if you are initializing AlbertModel from the checkpoint of a model that you expect to be exactly identical (initializing a BertForSequenceClassification model from a BertForSequenceClassification model).
ai4bharat/indic-bert model downloaded
The BERTCNNSentiment(
  (bert): AlbertModel(
    (embeddings): AlbertEmbeddings(
      (word_embeddings): Embedding(200000, 128, padding_idx=0)
      (position_embeddings): Embedding(512, 128)
      (token_type_embeddings): Embedding(2, 128)
      (LayerNorm): LayerNorm((128,), eps=1e-12, elementwise_affine=True)
      (dropout): Dropout(p=0, inplace=False)
    )
    (encoder): AlbertTransformer(
      (embedding_hidden_mapping_in): Linear(in_features=128, out_features=768, bias=True)
      (albert_layer_groups): ModuleList(
        (0): AlbertLayerGroup(
          (albert_layers): ModuleList(
            (0): AlbertLayer(
              (full_layer_layer_norm): LayerNorm((768,), eps=1e-12, elementwise_affine=True)
              (attention): AlbertAttention(
                (query): Linear(in_features=768, out_features=768, bias=True)
                (key): Linear(in_features=768, out_features=768, bias=True)
                (value): Linear(in_features=768, out_features=768, bias=True)
                (attention_dropout): Dropout(p=0, inplace=False)
                (output_dropout): Dropout(p=0, inplace=False)
                (dense): Linear(in_features=768, out_features=768, bias=True)
                (LayerNorm): LayerNorm((768,), eps=1e-12, elementwise_affine=True)
              )
              (ffn): Linear(in_features=768, out_features=3072, bias=True)
              (ffn_output): Linear(in_features=3072, out_features=768, bias=True)
              (activation): GELUActivation()
              (dropout): Dropout(p=0, inplace=False)
            )
          )
        )
      )
    )
    (pooler): Linear(in_features=768, out_features=768, bias=True)
    (pooler_activation): Tanh()
  )
  (conv_0): Conv2d(1, 100, kernel_size=(2, 768), stride=(1, 1))
  (conv_1): Conv2d(1, 100, kernel_size=(3, 768), stride=(1, 1))
  (conv_2): Conv2d(1, 100, kernel_size=(4, 768), stride=(1, 1))
  (fc): Linear(in_features=300, out_features=3, bias=True)
  (dropout): Dropout(p=0.3, inplace=False)
) has 34,135,987 trainable parameters
The AttentionModel(
  (bert): AlbertModel(
    (embeddings): AlbertEmbeddings(
      (word_embeddings): Embedding(200000, 128, padding_idx=0)
      (position_embeddings): Embedding(512, 128)
      (token_type_embeddings): Embedding(2, 128)
      (LayerNorm): LayerNorm((128,), eps=1e-12, elementwise_affine=True)
      (dropout): Dropout(p=0, inplace=False)
    )
    (encoder): AlbertTransformer(
      (embedding_hidden_mapping_in): Linear(in_features=128, out_features=768, bias=True)
      (albert_layer_groups): ModuleList(
        (0): AlbertLayerGroup(
          (albert_layers): ModuleList(
            (0): AlbertLayer(
              (full_layer_layer_norm): LayerNorm((768,), eps=1e-12, elementwise_affine=True)
              (attention): AlbertAttention(
                (query): Linear(in_features=768, out_features=768, bias=True)
                (key): Linear(in_features=768, out_features=768, bias=True)
                (value): Linear(in_features=768, out_features=768, bias=True)
                (attention_dropout): Dropout(p=0, inplace=False)
                (output_dropout): Dropout(p=0, inplace=False)
                (dense): Linear(in_features=768, out_features=768, bias=True)
                (LayerNorm): LayerNorm((768,), eps=1e-12, elementwise_affine=True)
              )
              (ffn): Linear(in_features=768, out_features=3072, bias=True)
              (ffn_output): Linear(in_features=3072, out_features=768, bias=True)
              (activation): GELUActivation()
              (dropout): Dropout(p=0, inplace=False)
            )
          )
        )
      )
    )
    (pooler): Linear(in_features=768, out_features=768, bias=True)
    (pooler_activation): Tanh()
  )
  (lstm): LSTM(768, 100)
  (label): Linear(in_features=100, out_features=3, bias=True)
) has 33,791,887 trainable parameters
Parameters for CNN_Model
bert.embeddings.word_embeddings.weight
bert.embeddings.position_embeddings.weight
bert.embeddings.token_type_embeddings.weight
bert.embeddings.LayerNorm.weight
bert.embeddings.LayerNorm.bias
bert.encoder.embedding_hidden_mapping_in.weight
bert.encoder.embedding_hidden_mapping_in.bias
…
